…
        "outputId": "45d72fce-d309-43a1-f7a5-6c0e4a0b360e"
      },
      "execution_count": null,
      "outputs": [
        {
          "output_type": "stream",
          "name": "stdout",
          "text": [
            "Model: \"model\"\n",
            "__________________________________________________________________________________________________\n",
            " Layer (type)                   Output Shape         Param #     Connected to                     \n",
            "==================================================================================================\n",
            " input_1 (InputLayer)           [(None, 50, 200, 1)  0           []                               \n",
            "                                ]                                                                 \n",
            "                                                                                                  \n",
            " conv2d (Conv2D)                (None, 50, 200, 16)  160         ['input_1[0][0]']                \n",
            "                                                                                                  \n",
            " max_pooling2d (MaxPooling2D)   (None, 25, 100, 16)  0           ['conv2d[0][0]']                 \n",
            "                                                                                                  \n",
            " conv2d_1 (Conv2D)              (None, 25, 100, 32)  4640        ['max_pooling2d[0][0]']          \n",
            "                                                                                                  \n",
            " max_pooling2d_1 (MaxPooling2D)  (None, 13, 50, 32)  0           ['conv2d_1[0][0]']               \n",
            "                                                                                                  \n",
            " conv2d_2 (Conv2D)              (None, 13, 50, 32)   9248        ['max_pooling2d_1[0][0]']        \n",
            "                                                                                                  \n",
            " batch_normalization (BatchNorm  (None, 13, 50, 32)  128         ['conv2d_2[0][0]']               \n",
            " alization)                                                                                       \n",
            "                                                                                                  \n",
            " max_pooling2d_2 (MaxPooling2D)  (None, 7, 25, 32)   0           ['batch_normalization[0][0]']    \n",
            "                                                                                                  \n",
            " flatten (Flatten)              (None, 5600)         0           ['max_pooling2d_2[0][0]']        \n",
            "                                                                                                  \n",
            " dense (Dense)                  (None, 64)           358464      ['flatten[0][0]']                \n",
            "                                                                                                  \n",
            " dense_2 (Dense)                (None, 64)           358464      ['flatten[0][0]']                \n",
            "                                                                                                  \n",
            " dense_4 (Dense)                (None, 64)           358464      ['flatten[0][0]']                \n",
            "                                                                                                  \n",
            " dense_6 (Dense)                (None, 64)           358464      ['flatten[0][0]']                \n",
            "                                                                                                  \n",
            " dropout (Dropout)              (None, 64)           0           ['dense[0][0]']                  \n",
            "                                                                                                  \n",
            " dropout_1 (Dropout)            (None, 64)           0           ['dense_2[0][0]']                \n",
            "                                                                                                  \n",
            " dropout_2 (Dropout)            (None, 64)           0           ['dense_4[0][0]']                \n",
            "                                                                                                  \n",
            " dropout_3 (Dropout)            (None, 64)           0           ['dense_6[0][0]']                \n",
            "                                                                                                  \n",
            " dense_1 (Dense)                (None, 36)           2340        ['dropout[0][0]']                \n",
            "                                                                                                  \n",
            " dense_3 (Dense)                (None, 36)           2340        ['dropout_1[0][0]']              \n",
            "                                                                                                  \n",
            " dense_5 (Dense)                (None, 36)           2340        ['dropout_2[0][0]']              \n",
            "                                                                                                  \n",
            " dense_7 (Dense)                (None, 36)           2340        ['dropout_3[0][0]']              \n",
            "                                                                                                  \n",
            "==================================================================================================\n",
            "Total params: 1,457,392\n",
            "Trainable params: 1,457,328\n",
            "Non-trainable params: 64\n",
…
